…
apsed":38116,"user":{"displayName":"Akshit Sharma","photoUrl":"https://lh3.googleusercontent.com/a-/AOh14GjT7mEzo4Xl5HM1PVpZcT_xG8Y80JRpzG7zoIty9w=s64","userId":"12957378049941848214"}},"id":"hF8eEOLxL78m","colab":{"base_uri":"https://localhost:8080/","height":408}},"source":["model.summary()"],"execution_count":34,"outputs":[{"output_type":"stream","text":["_________________________________________________________________\n","Layer (type)                 Output Shape              Param #   \n","=================================================================\n","flatten_2 (Flatten)          (None, 4)                 0         \n","_________________________________________________________________\n","dense_6 (Dense)              (None, 16)                80        \n","_________________________________________________________________\n","activation_4 (Activation)    (None, 16)                0         \n","_________________________________________________________________\n","dense_7 (Dense)              (None, 64)                1088      \n","_________________________________________________________________\n","activation_5 (Activation)    (None, 64)                0         \n","_________________________________________________________________\n","dense_8 (Dense)              (None, 16)                1040      \n","_________________________________________________________________\n","activation_6 (Activation)    (None, 16)                0         \n","_________________________________________________________________\n","dense_9 (Dense)              (None, 2)                 34        \n","=================================================================\n","Total params: 2,242\n","Trainable params: 2,242\n","Non-trainable params: 0\n","_________________________________________________________________\n"],"name":"stdout"}]},{"cell_type":"code","metadata":{"id":"1xlDx2i9C3S2","colab_type":"code","colab":{}},"source":["# scores = []\n","# choices = []\n","# reward_list=[]
…
