…
_tz":-330,"elapsed":74730,"user":{"displayName":"Akshit Sharma","photoUrl":"https://lh3.googleusercontent.com/a-/AOh14GjT7mEzo4Xl5HM1PVpZcT_xG8Y80JRpzG7zoIty9w=s64","userId":"12957378049941848214"}},"colab":{"base_uri":"https://localhost:8080/","height":425}},"source":["print(model.summary())"],"execution_count":67,"outputs":[{"output_type":"stream","text":["_________________________________________________________________\n","Layer (type)                 Output Shape              Param #   \n","=================================================================\n","flatten_1 (Flatten)          (None, 4)                 0         \n","_________________________________________________________________\n","dense_1 (Dense)              (None, 16)                80        \n","_________________________________________________________________\n","activation_1 (Activation)    (None, 16)                0         \n","_________________________________________________________________\n","dense_2 (Dense)              (None, 64)                1088      \n","_________________________________________________________________\n","activation_2 (Activation)    (None, 64)                0         \n","_________________________________________________________________\n","dense_3 (Dense)              (None, 16)                1040      \n","_________________________________________________________________\n","activation_3 (Activation)    (None, 16)                0         \n","_________________________________________________________________\n","dense_4 (Dense)              (None, 2)                 34        \n","=================================================================\n","Total params: 2,242\n","Trainable params: 2,242\n","Non-trainable params: 0\n","_________________________________________________________________\n","None\n"],"name":"stdout"}]},{"cell_type":"code","metadata":{"id":"7uS_afiJF6-a","colab_type":"code","colab":{}},"source":["# sgd = SGD(lr=0.01, decay=1e-6, momentum=0.
…
 the final weights.\n","# sarsa.save_weights('sarsa_{}_weights.h5f'.format(ENV_NAME), overwrite=True)\n","\n","# # Finally, evaluate our algorithm for 5 episodes.\n","# #sarsa.test(env, nb_episodes=1000, nb_max_episode_steps=500, visualize=False)"],"execution_count":76,"outputs":[{"output_type":"stream","text":["CartPoleEnv - Version 0.2.0, Noise case: 1\n","_________________________________________________________________\n","Layer (type)                 Output Shape              Param #   \n","=================================================================\n","flatten_2 (Flatten)          (None, 4)                 0         \n","_________________________________________________________________\n","dense_5 (Dense)              (None, 16)                80        \n","_________________________________________________________________\n","activation_4 (Activation)    (None, 16)                0         \n","_________________________________________________________________\n","dense_6 (Dense)              (None, 64)                1088      \n","_________________________________________________________________\n","activation_5 (Activation)    (None, 64)                0         \n","_________________________________________________________________\n","dense_7 (Dense)              (None, 16)                1040      \n","_________________________________________________________________\n","activation_6 (Activation)    (None, 16)                0         \n","_________________________________________________________________\n","dense_8 (Dense)              (None, 2)                 34        \n","_________________________________________________________________\n","activation_7 (Activation)    (None, 2)                 0         \n","=================================================================\n","Total params: 2,242\n","Trainable params: 2,242\n","Non-trainable params: 0\n","_________________________________________________________________\n","None\n","Training for 50000 steps ...\n"],"name":"stdout"},{"output_type":"stream","text":["/usr/local/lib/python3.6/dist-packages/gym/logger.py:30: UserWarning: \u00
…
