…
yName":"Akshit Sharma","photoUrl":"https://lh3.googleusercontent.com/a-/AOh14GjT7mEzo4Xl5HM1PVpZcT_xG8Y80JRpzG7zoIty9w=s64","userId":"12957378049941848214"}},"id":"hF8eEOLxL78m","colab":{"base_uri":"https://localhost:8080/","height":391}},"source":["model.summary()"],"execution_count":23,"outputs":[{"output_type":"stream","text":["Model: \"sequential_1\"\n","_________________________________________________________________\n","Layer (type)                 Output Shape              Param #   \n","=================================================================\n","dense_1 (Dense)              (None, 32)                160       \n","_________________________________________________________________\n","activation_1 (Activation)    (None, 32)                0         \n","_________________________________________________________________\n","dense_2 (Dense)              (None, 32)                1056      \n","_________________________________________________________________\n","activation_2 (Activation)    (None, 32)                0         \n","_________________________________________________________________\n","dense_3 (Dense)              (None, 32)                1056      \n","_________________________________________________________________\n","activation_3 (Activation)    (None, 32)                0         \n","_________________________________________________________________\n","dense_4 (Dense)              (None, 2)                 66        \n","=================================================================\n","Total params: 2,338\n","Trainable params: 2,338\n","Non-trainable params: 0\n","_________________________________________________________________\n"],"name":"stdout"}]},{"cell_type":"code","metadata":{"id":"1xlDx2i9C3S2","colab_type":"code","outputId":"3bb46a8d-0110-4e50-859e-57b3a45dc16b","executionInfo":{"status":
…
